…
2021-05-08 22:54:21.183274: I tensorflow/compiler/xla/service/service.cc:168] XLA service 0x1fe5166c140 initialized for platform CUDA (this does not guarantee that XLA will be used). Devices:
2021-05-08 22:54:21.183377: I tensorflow/compiler/xla/service/service.cc:176]   StreamExecutor device (0): GeForce RTX 2070 SUPER, Compute Capability 7.5
Found 391 files belonging to 12 classes.
['土豆', '圣女果', '大白菜', '大葱', '梨', '胡萝卜', '芒果', '苹果', '西红柿', '韭菜', '香蕉', '黄瓜']
Model: "sequential"
_________________________________________________________________
Layer (type)                 Output Shape              Param #
=================================================================
rescaling (Rescaling)        (None, 224, 224, 3)       0
_________________________________________________________________
conv2d (Conv2D)              (None, 222, 222, 32)      896
_________________________________________________________________
max_pooling2d (MaxPooling2D) (None, 111, 111, 32)      0
_________________________________________________________________
conv2d_1 (Conv2D)            (None, 109, 109, 64)      18496
_________________________________________________________________
max_pooling2d_1 (MaxPooling2 (None, 54, 54, 64)        0
_________________________________________________________________
flatten (Flatten)            (None, 186624)            0
_________________________________________________________________
dense (Dense)                (None, 128)               23888000
_________________________________________________________________
dense_1 (Dense)              (None, 12)                1548
=================================================================
Total params: 23,908,940
Trainable params: 23,908,940
Non-trainable params: 0
_________________________________________________________________
Epoch 1/30
2021-05-08 22:54:21.914638: I tensorflow/stream_executor/platform/default/dso_loader.cc:48] Successfully opened dynamic library cublas64_10.dll
2021-05-08 22:54:22.744379: I tensorflow/stream_executor/platform/default/dso_loader.cc:48] Successfully opened dynamic library cudnn64_7.dll
…
